quantized_model.tflite (tflite, 45848 bytes, 4 tensors)

tfl.pseudo_qconst1 i1 [10, 128]
0	0xc8	-56
1	0x25	37
2	0x23	35
3	0xc8	-56
4	0x2d	45
5	0xc1	-63
6	0xe2	-30
7	0xda	-38
8	0x9b	-101
9	0xde	-34
10	0x82	-126
11	0x09	9
12	0xa0	-96
13	0xcd	-51
14	0x12	18
15	0x03	3
16	0xc2	-62
17	0xe0	-32
18	0xa9	-87
19	0x20	32
20	0xf8	-8
21	0x38	56
22	0xde	-34
23	0xa4	-92
24	0x1f	31
25	0x12	18
26	0x2a	42
27	0xc8	-56
28	0x22	34
29	0x10	16
30	0x0d	13
31	0xd7	-41
32	0xf2	-14
33	0xa7	-89
34	0x81	-127
35	0x1d	29
36	0xb0	-80
37	0xeb	-21
38	0x32	50
39	0xc6	-58
40	0x2b	43
41	0x06	6
42	0xf8	-8
43	0x2a	42
44	0x12	18
45	0xcf	-49
46	0xec	-20
47	0xc9	-55
48	0x0c	12
49	0xd7	-41
50	0xe6	-26
51	0x17	23
52	0xe2	-30
53	0xbe	-66
54	0xe9	-23
55	0x17	23
56	0xe4	-28
57	0x31	49
58	0xc1	-63
59	0x03	3
60	0x1d	29
61	0x08	8
62	0xe3	-29
63	0xfd	-3
64	0xfa	-6
65	0x1f	31
66	0xaf	-81
67	0xe6	-26
68	0x07	7
69	0xc3	-61
70	0xa8	-88
71	0x09	9
72	0xc4	-60
73	0x14	20
74	0xd9	-39
75	0xc8	-56
76	0x20	32
77	0x28	40
78	0xf0	-16
79	0xa7	-89
80	0x34	52
81	0x0e	14
82	0xe5	-27
83	0xa2	-94
84	0xa3	-93
85	0x21	33
86	0xed	-19
87	0xb6	-74
88	0xfc	-4
89	0xe9	-23
90	0xf6	-10
91	0x1c	28
92	0xf0	-16
93	0xfd	-3
94	0xe2	-30
95	0xf2	-14
96	0xd1	-47
97	0xfb	-5
98	0xa1	-95
99	0xf9	-7
100	0xe7	-25
101	0xef	-17
102	0xc3	-61
103	0xb2	-78
104	0x15	21
105	0x05	5
106	0xc5	-59
107	0x11	17
108	0x18	24
109	0x08	8
110	0xd2	-46
111	0xf7	-9
112	0x95	-107
113	0x0c	12
114	0x25	37
115	0xd5	-43
116	0xfd	-3
117	0x07	7
118	0x1d	29
119	0xfd	-3
120	0x1f	31
121	0xc4	-60
122	0xce	-50
123	0xa4	-92
124	0xaf	-81
125	0x3f	63
126	0xa5	-91
127	0xce	-50
128	0xad	-83
129	0x39	57
130	0x13	19
131	0xa9	-87
132	0xc5	-59
133	0x0b	11
134	0x21	33
135	0xfc	-4
136	0xee	-18
137	0xd8	-40
138	0xdd	-35
139	0x07	7
140	0xf6	-10
141	0x0c	12
142	0x2f	47
143	0xe0	-32
144	0x19	25
145	0xb7	-73
146	0x1f	31
147	0x38	56
148	0xe8	-24
149	0x22	34
150	0xc5	-59
151	0x97	-105
152	0x05	5
153	0xea	-22
154	0xa3	-93
155	0x20	32
156	0x15	21
157	0xe1	-31
158	0x00	0
159	0xfe	-2
160	0xa1	-95
161	0x12	18
162	0x29	41
163	0x00	0
164	0x25	37
165	0x0f	15
166	0xc0	-64
167	0xdd	-35
168	0x23	35
169	0xf4	-12
170	0x06	6
171	0xc9	-55
172	0xf6	-10
173	0x32	50
174	0x03	3
175	0xe8	-24
176	0x81	-127
177	0xc9	-55
178	0xf0	-16
179	0xd9	-39
180	0xd0	-48
181	0xec	-20
182	0x02	2
183	0x45	69
184	0xf4	-12
185	0x28	40
186	0x26	38
187	0xd3	-45
188	0xe7	-25
189	0xc5	-59
190	0xca	-54
191	0xfd	-3
192	0xde	-34
193	0xc8	-56
194	0x2d	45
195	0xf5	-11
196	0x0a	10
197	0xd4	-44
198	0x1b	27
199	0x07	7
200	0x0f	15
201	0xfa	-6
202	0x23	35
203	0xd3	-45
204	0x23	35
205	0xdb	-37
206	0x08	8
207	0xee	-18
208	0xc6	-58
209	0xe3	-29
210	0xd2	-46
211	0x35	53
212	0x13	19
213	0xb6	-74
214	0x10	16
215	0x2d	45
216	0x00	0
217	0xf5	-11
218	0x0b	11
219	0xfd	-3
220	0x4a	74
221	0xec	-20
222	0xfc	-4
223	0xab	-85
224	0x00	0
225	0xe8	-24
226	0xaa	-86
227	0x05	5
228	0xe0	-32
229	0x00	0
230	0xd7	-41
231	0xfd	-3
232	0xb2	-78
233	0x0a	10
234	0x2a	42
235	0xe9	-23
236	0xab	-85
237	0xff	-1
238	0x20	32
239	0xd4	-44
240	0x03	3
241	0x26	38
242	0xdf	-33
243	0xae	-82
244	0x14	20
245	0xa8	-88
246	0xbb	-69
247	0x1c	28
248	0x1d	29
249	0x85	-123
250	0x1a	26
251	0xc8	-56
252	0x2b	43
253	0xfd	-3
254	0x22	34
255	0xd4	-44

tfl.pseudo_qconst3 i1 [128, 256]
0	0x32	50
1	0xc9	-55
2	0x2c	44
3	0xf8	-8
4	0xbb	-69
5	0xc6	-58
6	0xdb	-37
7	0xbf	-65
8	0xc2	-62
9	0xb0	-80
10	0x17	23
11	0x32	50
12	0x04	4
13	0x0d	13
14	0xe0	-32
15	0xa9	-87
16	0x42	66
17	0xf9	-7
18	0x0b	11
19	0xdf	-33
20	0x31	49
21	0x12	18
22	0xe9	-23
23	0xd4	-44
24	0xfe	-2
25	0x07	7
26	0x07	7
27	0x0f	15
28	0x35	53
29	0xf1	-15
30	0xc3	-61
31	0xe0	-32
32	0xf5	-11
33	0x0b	11
34	0xef	-17
35	0xd4	-44
36	0xe5	-27
37	0xe6	-26
38	0xdb	-37
39	0x2b	43
40	0x0a	10
41	0x1d	29
42	0x1b	27
43	0x04	4
44	0x0e	14
45	0xde	-34
46	0xdb	-37
47	0x01	1
48	0xa8	-88
49	0x10	16
50	0xf4	-12
51	0xf0	-16
52	0xdf	-33
53	0xdc	-36
54	0xdc	-36
55	0x20	32
56	0xd6	-42
57	0xbf	-65
58	0xf5	-11
59	0xed	-19
60	0xe3	-29
61	0xda	-38
62	0x2c	44
63	0xeb	-21
64	0x14	20
65	0xcd	-51
66	0x3a	58
67	0xa6	-90
68	0xf5	-11
69	0x06	6
70	0x22	34
71	0x0f	15
72	0xd1	-47
73	0xca	-54
74	0xdc	-36
75	0x27	39
76	0xdd	-35
77	0x14	20
78	0xca	-54
79	0x0a	10
80	0x0f	15
81	0x3b	59
82	0x14	20
83	0xe1	-31
84	0x2e	46
85	0xd3	-45
86	0x2f	47
87	0xdb	-37
88	0x15	21
89	0x19	25
90	0x28	40
91	0xc8	-56
92	0xc1	-63
93	0x22	34
94	0xc7	-57
95	0x14	20
96	0xc6	-58
97	0x4b	75
98	0xea	-22
99	0xdd	-35
100	0x11	17
101	0x1c	28
102	0xfe	-2
103	0xed	-19
104	0x39	57
105	0x0e	14
106	0xd9	-39
107	0x03	3
108	0xf7	-9
109	0x1f	31
110	0xe8	-24
111	0x04	4
112	0x2a	42
113	0xff	-1
114	0xba	-70
115	0xc9	-55
116	0xe2	-30
117	0xf4	-12
118	0x04	4
119	0xd3	-45
120	0x38	56
121	0xf7	-9
122	0x11	17
123	0x1d	29
124	0x36	54
125	0x01	1
126	0x28	40
127	0xdd	-35
128	0x3f	63
129	0xcd	-51
130	0x18	24
131	0xba	-70
132	0x08	8
133	0xee	-18
134	0xfd	-3
135	0x2b	43
136	0x0c	12
137	0x18	24
138	0x02	2
139	0x12	18
140	0xfa	-6
141	0x0b	11
142	0x0b	11
143	0xdf	-33
144	0xde	-34
145	0x04	4
146	0xdd	-35
147	0xe1	-31
148	0x21	33
149	0x19	25
150	0x1c	28
151	0xf9	-7
152	0x08	8
153	0x33	51
154	0x0c	12
155	0x09	9
156	0x05	5
157	0x19	25
158	0x0e	14
159	0x08	8
160	0x0a	10
161	0x09	9
162	0xfe	-2
163	0x24	36
164	0xfc	-4
165	0x2d	45
166	0x14	20
167	0xdf	-33
168	0x11	17
169	0xf8	-8
170	0x07	7
171	0x02	2
172	0xef	-17
173	0xf1	-15
174	0x16	22
175	0xec	-20
176	0xe9	-23
177	0x14	20
178	0xe0	-32
179	0xe3	-29
180	0x1f	31
181	0x3a	58
182	0x03	3
183	0xe8	-24
184	0x03	3
185	0x3b	59
186	0xed	-19
187	0x12	18
188	0xda	-38
189	0x08	8
190	0xd8	-40
191	0x19	25
192	0x38	56
193	0x06	6
194	0x14	20
195	0x1a	26
196	0xce	-50
197	0xe4	-28
198	0xe0	-32
199	0xfb	-5
200	0xe6	-26
201	0xec	-20
202	0x06	6
203	0x11	17
204	0xd1	-47
205	0xd3	-45
206	0x09	9
207	0xb1	-79
208	0x41	65
209	0xd2	-46
210	0xfe	-2
211	0x0a	10
212	0x03	3
213	0xd3	-45
214	0xbe	-66
215	0xfd	-3
216	0xd5	-43
217	0xd9	-39
218	0x09	9
219	0x0f	15
220	0xff	-1
221	0xd9	-39
222	0xfa	-6
223	0xb4	-76
224	0xfa	-6
225	0x08	8
226	0x01	1
227	0x08	8
228	0x38	56
229	0x07	7
230	0x39	57
231	0x0f	15
232	0xec	-20
233	0xf4	-12
234	0xfd	-3
235	0xdf	-33
236	0x04	4
237	0xc4	-60
238	0xd8	-40
239	0x04	4
240	0xf5	-11
241	0x26	38
242	0x0a	10
243	0xf0	-16
244	0x22	34
245	0x1c	28
246	0x31	49
247	0xb2	-78
248	0x12	18
249	0x81	-127
250	0xf7	-9
251	0xf0	-16
252	0xfc	-4
253	0xcd	-51
254	0xe3	-29
255	0xe7	-25

tfl.pseudo_qconst5 i1 [16, 5, 5, 8]
0	0x13	19
1	0x04	4
2	0xed	-19
3	0x0b	11
4	0x40	64
5	0x01	1
6	0x11	17
7	0x0a	10
8	0xfd	-3
9	0x04	4
10	0xeb	-21
11	0x12	18
12	0x29	41
13	0xbd	-67
14	0x14	20
15	0x02	2
16	0x05	5
17	0x2c	44
18	0xda	-38
19	0x22	34
20	0xf9	-7
21	0xf9	-7
22	0xd6	-42
23	0xbc	-68
24	0x16	22
25	0x04	4
26	0x0d	13
27	0xcd	-51
28	0xf2	-14
29	0x17	23
30	0xe3	-29
31	0xc3	-61
32	0xf6	-10
33	0xd0	-48
34	0x19	25
35	0xe3	-29
36	0x26	38
37	0x0d	13
38	0xf0	-16
39	0xdd	-35
40	0x12	18
41	0x31	49
42	0xe8	-24
43	0x07	7
44	0x1c	28
45	0x07	7
46	0xef	-17
47	0xee	-18
48	0xf3	-13
49	0x07	7
50	0xe7	-25
51	0xce	-50
52	0xf2	-14
53	0x35	53
54	0xc9	-55
55	0xd7	-41
56	0xb6	-74
57	0xe9	-23
58	0xeb	-21
59	0xb8	-72
60	0xfe	-2
61	0x37	55
62	0xe8	-24
63	0x9f	-97
64	0xcf	-49
65	0xef	-17
66	0x09	9
67	0xdd	-35
68	0x21	33
69	0x15	21
70	0xf4	-12
71	0xc5	-59
72	0xdd	-35
73	0x29	41
74	0xe3	-29
75	0xed	-19
76	0x1b	27
77	0xb1	-79
78	0x00	0
79	0xf9	-7
80	0xe5	-27
81	0xc0	-64
82	0xf3	-13
83	0xf8	-8
84	0xd5	-43
85	0x2b	43
86	0x0e	14
87	0x23	35
88	0xb0	-80
89	0xd7	-41
90	0x0b	11
91	0xd5	-43
92	0x11	17
93	0x20	32
94	0xc8	-56
95	0xd5	-43
96	0x81	-127
97	0x0a	10
98	0xf9	-7
99	0xcd	-51
100	0x2a	42
101	0xdd	-35
102	0xf8	-8
103	0xbd	-67
104	0xdb	-37
105	0x45	69
106	0xfd	-3
107	0xca	-54
108	0xe9	-23
109	0xe2	-30
110	0x27	39
111	0x26	38
112	0x00	0
113	0x0e	14
114	0xef	-17
115	0xf8	-8
116	0xf0	-16
117	0xd7	-41
118	0x0e	14
119	0xfd	-3
120	0xce	-50
121	0xf4	-12
122	0x15	21
123	0x01	1
124	0x07	7
125	0xe3	-29
126	0xf1	-15
127	0xee	-18
128	0xc5	-59
129	0x0a	10
130	0xf0	-16
131	0x1b	27
132	0xff	-1
133	0x98	-104
134	0x07	7
135	0xd8	-40
136	0x08	8
137	0xf3	-13
138	0x05	5
139	0xe0	-32
140	0xe7	-25
141	0xaa	-86
142	0x48	72
143	0xf5	-11
144	0x2e	46
145	0xdb	-37
146	0xf5	-11
147	0x2e	46
148	0x13	19
149	0x05	5
150	0xe7	-25
151	0x0f	15
152	0x31	49
153	0x07	7
154	0x22	34
155	0x1c	28
156	0x08	8
157	0xd6	-42
158	0x0a	10
159	0xc6	-58
160	0x16	22
161	0x0b	11
162	0xe4	-28
163	0xfd	-3
164	0xf7	-9
165	0xcd	-51
166	0x09	9
167	0xda	-38
168	0x20	32
169	0x15	21
170	0x0b	11
171	0x12	18
172	0xf5	-11
173	0xc4	-60
174	0x17	23
175	0xed	-19
176	0x19	25
177	0x10	16
178	0x1b	27
179	0x0e	14
180	0x0a	10
181	0xf5	-11
182	0x0c	12
183	0xde	-34
184	0x61	97
185	0x21	33
186	0x04	4
187	0x0f	15
188	0x29	41
189	0x04	4
190	0xe0	-32
191	0xe7	-25
192	0x01	1
193	0x17	23
194	0xf4	-12
195	0x15	21
196	0x0b	11
197	0xca	-54
198	0xf6	-10
199	0x24	36
200	0x01	1
201	0xe5	-27
202	0xf0	-16
203	0xf2	-14
204	0xe5	-27
205	0x1e	30
206	0x0c	12
207	0xdb	-37
208	0xe7	-25
209	0xdd	-35
210	0xeb	-21
211	0x02	2
212	0xf4	-12
213	0x48	72
214	0x15	21
215	0x0b	11
216	0xc9	-55
217	0xed	-19
218	0xea	-22
219	0xf9	-7
220	0x06	6
221	0xfd	-3
222	0x04	4
223	0x2f	47
224	0xd1	-47
225	0xe7	-25
226	0x15	21
227	0xd9	-39
228	0xf7	-9
229	0x15	21
230	0x0e	14
231	0x09	9
232	0x0b	11
233	0x03	3
234	0x0d	13
235	0xec	-20
236	0xfb	-5
237	0x07	7
238	0xca	-54
239	0x04	4
240	0x81	-127
241	0x0f	15
242	0x05	5
243	0xf2	-14
244	0x18	24
245	0xb6	-74
246	0xf1	-15
247	0xc4	-60
248	0xbe	-66
249	0xe5	-27
250	0x10	16
251	0x0d	13
252	0xf6	-10
253	0xc6	-58
254	0x2d	45
255	0x41	65

tfl.pseudo_qconst7 i1 [8, 5, 5, 1]
0	0x0b	11
1	0xfe	-2
2	0x17	23
3	0x56	86
4	0x5a	90
5	0xcd	-51
6	0xc5	-59
7	0xa8	-88
8	0xcc	-52
9	0x0d	13
10	0x25	37
11	0xb4	-76
12	0xa3	-93
13	0x94	-108
14	0xdd	-35
15	0x21	33
16	0x08	8
17	0xb0	-80
18	0xd1	-47
19	0xa7	-89
20	0x7f	127
21	0x62	98
22	0x73	115
23	0x45	69
24	0xf0	-16
25	0xf1	-15
26	0xdd	-35
27	0xf4	-12
28	0x1c	28
29	0x48	72
30	0x56	86
31	0x7f	127
32	0x56	86
33	0x39	57
34	0xcd	-51
35	0xed	-19
36	0x1c	28
37	0x22	34
38	0x2d	45
39	0xef	-17
40	0xb9	-71
41	0xca	-54
42	0xd5	-43
43	0x06	6
44	0x19	25
45	0xba	-70
46	0xb5	-75
47	0xc8	-56
48	0xd3	-45
49	0x03	3
50	0xce	-50
51	0xec	-20
52	0x08	8
53	0xd2	-46
54	0xac	-84
55	0xf7	-9
56	0x16	22
57	0x5c	92
58	0xfc	-4
59	0x06	6
60	0x40	64
61	0xcd	-51
62	0x51	81
63	0x27	39
64	0x09	9
65	0x81	-127
66	0x15	21
67	0x1b	27
68	0x55	85
69	0xe6	-26
70	0xff	-1
71	0xf2	-14
72	0xf0	-16
73	0x03	3
74	0x48	72
75	0xe5	-27
76	0x32	50
77	0xed	-19
78	0x28	40
79	0x44	68
80	0x00	0
81	0xbd	-67
82	0xa5	-91
83	0x3e	62
84	0x21	33
85	0xad	-83
86	0xe2	-30
87	0xf0	-16
88	0x1e	30
89	0x33	51
90	0xf3	-13
91	0x81	-127
92	0x90	-112
93	0xbc	-68
94	0xf7	-9
95	0x5c	92
96	0x22	34
97	0xdb	-37
98	0xec	-20
99	0xe8	-24
100	0x85	-123
101	0xef	-17
102	0x00	0
103	0xd4	-44
104	0x13	19
105	0x71	113
106	0x08	8
107	0xfd	-3
108	0x2a	42
109	0x5c	92
110	0x73	115
111	0xdc	-36
112	0x00	0
113	0x6f	111
114	0x2e	46
115	0xc4	-60
116	0x33	51
117	0x34	52
118	0x01	1
119	0xe5	-27
120	0xb4	-76
121	0xf6	-10
122	0xe3	-29
123	0x88	-120
124	0x81	-127
125	0xf8	-8
126	0x27	39
127	0x28	40
128	0x13	19
129	0xec	-20
130	0xf3	-13
131	0x8e	-114
132	0x81	-127
133	0xaa	-86
134	0x93	-109
135	0xed	-19
136	0xd6	-42
137	0xe5	-27
138	0xaa	-86
139	0xcb	-53
140	0xce	-50
141	0xc6	-58
142	0xbc	-68
143	0x1b	27
144	0x48	72
145	0xde	-34
146	0x2b	43
147	0x52	82
148	0x3f	63
149	0x6a	106
150	0xc1	-63
151	0x4b	75
152	0x39	57
153	0x19	25
154	0xa0	-96
155	0xa6	-90
156	0x2e	46
157	0x7f	127
158	0xc9	-55
159	0x86	-122
160	0xe8	-24
161	0x54	84
162	0x2f	47
163	0xe5	-27
164	0xc5	-59
165	0x12	18
166	0xf2	-14
167	0x23	35
168	0x4c	76
169	0x00	0
170	0x1b	27
171	0x4e	78
172	0xd6	-42
173	0xfe	-2
174	0xf2	-14
175	0x7f	127
176	0x5b	91
177	0x0c	12
178	0x30	48
179	0xf1	-15
180	0x2a	42
181	0xc7	-57
182	0xd8	-40
183	0xaa	-86
184	0x8f	-113
185	0x25	37
186	0x00	0
187	0xac	-84
188	0x84	-124
189	0xe9	-23
190	0xc8	-56
191	0xbe	-66
192	0xb0	-80
193	0xb1	-79
194	0xfa	-6
195	0x06	6
196	0x1c	28
197	0xed	-19
198	0x17	23
199	0xf5	-11
